output/model.pth (torch, 267081 bytes, 3 tensors)

weight f4 [16, 1, 3, 3]
0.24525641 -0.0402864 -0.30604273 0.18832554 0.04303293 -0.14155027 -0.035509657 0.2017107
0.09199007 0.22164376 -0.27790502 0.01713185 0.25631225 0.080564044 -0.20323116 -0.13811272
0.22939643 -0.20469746 0.17884424 0.030697616 0.27369162 0.14779437 0.2544124 0.22145562
0.12007256 0.10518697 0.2859107 -0.09808891 -0.010243167 -0.22969125 -0.14237982 0.25502768
0.01528346 0.23507397 0.23286638 0.19497849 -0.0084008975 -0.17253375 0.28890792 -0.082914576
0.2590618 0.039543852 -0.050893173 0.12567706 -0.03684438 0.020275172 0.110058196 0.11472521
0.39416507 0.18700181 0.24529268 0.12878518 0.265606 -0.086003646 0.2958417 0.09115389
-0.17764056 -0.05466566 -0.041366044 -0.3000811 -0.0033950494 -0.035191428 0.13829829 -0.21935195
-0.24571408 0.3915796 0.098097384 -0.029792098 0.42787156 -0.23479977 -0.09888235 0.1961998
0.08084927 -0.0065304963 0.2727664 0.05753184 -0.31351912 -0.023589484 -0.26574942 -0.31394988
-0.2989833 -0.20486388 -0.12852764 0.05545819 0.050931312 -0.25850615 0.072556004 0.2124813
0.2585046 -0.10231091 0.14498237 0.2103426 -0.10955791 -0.1395023 0.22873257 0.10553032
0.19332717 -0.32228062 -0.27877948 -0.2583395 0.06927311 -0.048955757 -0.13393007 -0.21728969
0.14331521 0.23183483 0.10959239 -0.25870416 0.19743265 -0.2981257 0.1468515 0.11791942
0.20866115 -0.28803703 -0.20973651 0.19142398 -0.2848718 0.213295 0.25804648 0.19697957
-0.31279984 0.014578432 0.26125383 0.07256467 -0.11669761 -0.040016823 -0.1994652 0.18036349
0.23768911 -0.029876832 -0.0073664663 -0.03868491 -0.13440265 -0.24429382 -0.23790905 0.020062568
-0.12663658 -0.25397918 0.0146669205 0.004388638 0.1467845 0.18290564 -0.24086891 0.047948495
00000000: 7f24 7b3e 5a03 25bd a2b1 9cbe 69d8 403e
00000010: 4c43 303d 8ef2 10be 9372 11bd 408d 4e3e
00000020: 4a65 bc3d 95f6 623e 9149 8ebe 1858 8c3c
00000030: 5c3b 833e c3fe a43d d41b 50be 6c6d 0dbe
00000040: e6e6 6a3e 369c 51be f222 373e 9179 fb3c
00000050: 4f21 8c3e 6857 173e 5842 823e 43c5 623e
00000060: 9ae8 f53d 446c d73d e362 923e d7e2 c8bd
00000070: f5d2 27bc 2f34 6bbe 04cc 11be fd92 823e
00000080: 7a67 7a3c 3bb7 703e 8674 6e3e 71a8 473e
00000090: eba3 09bc b0ac 30be bdeb 933e 1ecf a9bd
000000a0: c0a3 843e bcf8 213d 5c75 50bd 7db1 003e
000000b0: 22ea 16bd 1e18 a63c 3166 e13d 0df5 ea3d
000000c0: 01d0 c93e 677d 3f3e 012e 7b3e 43e0 033e
000000d0: 82fd 873e ae22 b0bd 9078 973e e4ae ba3d
000000e0: 68e7 35be 19e9 5fbd 716f 29bd 3ba4 99be
000000f0: 7a7f 5ebb e324 10bd 119e 0d3e cc9d 60be
00000100: 799c 7bbe 1f7d c83e 48e7 c83d 8f0e f4bc
00000110: fb11 db3e 5a6f 70be d482 cabd 9ae8 483e
00000120: 4d94 a53d c6fd d5bb 0aa8 8b3e 82a6 6b3d
00000130: 9485 a0be bc3e c1bc 4f10 88be 0abe a0be
00000140: 5714 99be d6c7 51be c09c 03be 2128 633d
00000150: 5a9d 503d eb5a 84be 3e98 943d b394 593e
00000160: b75a 843e 6288 d1bd 4276 143e 0d64 573e
00000170: e65f e0bd b1d9 0ebe df38 6a3e 4820 d83d
00000180: 8ff7 453e f701 a5be 2fbc 8ebe 1345 84be
00000190: 0fdf 8d3d d585 48bd f724 09be 3081 5ebe
000001a0: 39c1 123e 1c66 6d3e fa71 e03d df74 84be
000001b0: c92b 4a3e efa3 98be 3d60 163e bd7f f13d
000001c0: 45ab 553e 9779 93be 2bc5 56be a604 443e
000001d0: b7da 91be 016a 5a3e ab1e 843e 03b5 493e
000001e0: 4d27 a0be 60da 6e3c 10c3 853e c99c 943d
000001f0: 28ff eebd aee8 23bd 9b40 4cbe 35b1 383e
00000200: c664 733e 42c0 f4bc 6662 f1bb 1174 1ebd
00000210: d9a0 09be 2928 7abe 6e9e 73be 415a a43c
00000220: 05ad 01be 8f09 82be 864d 703c 90ce 8f3b
00000230: ad4e 163e 9e4b 3b3e 57a6 76be a465 443d

bias f4 [16]
-0.13470389 0.16900577 0.2982576 0.14928488 -0.09742584 -0.0809327 0.062925406 -0.12581761
0.1569326 0.033540722 -0.020961285 0.24910422 0.2484882 0.22287473 0.26725006 0.13665952
00000000: d1ef 09be d90f 2d3e 38b5 983e 23de 183e
00000010: 3387 c7bd 0bc0 a5bd 09df 803d 55d6 00be
00000020: f1b2 203e ff61 093d 00b7 abbc 2d15 7f3e
00000030: b173 7e3e 4639 643e 00d5 883e 79f0 0b3e

weight f4 [1, 65536]
0.058633644 0.042623688 0.039175455 0.015294974 0.035965655 0.0024368775 -0.043600257 -0.040451445
-0.012814067 -0.013672714 0.0052470686 -0.012330686 -0.009799628 -0.007038192 -0.009717486 -0.020817941
-0.0029199636 -0.0025455784 -0.0047127185 -0.012946925 -0.008363506 -0.013180834 -0.012964858 -0.020224335
-0.016234005 -0.01548743 -0.020945396 -0.017257528 -0.019770041 -0.017945703 -0.02544204 -0.026624918
-0.021483615 -0.022557335 -0.025877338 -0.024269832 -0.020764345 -0.01894449 -0.01942029 -0.020441296
-0.016167386 -0.014672645 0.00016531291 0.010083617 0.0109047415 0.019191891 0.027645266 0.032481417
0.039676655 0.04596372 0.05297591 0.05188959 0.029615985 0.03031729 0.027617749 0.046707463
0.050429225 0.032692403 0.051901896 0.007843636 0.03265844 0.030127037 0.018827984 0.0069148205
0.05993013 0.06893976 0.045433097 0.043634705 0.043341517 0.037744865 0.015907865 -0.057571296
-0.07608734 -0.024504725 -0.023831027 -0.0024497902 -0.029645795 -0.06472368 -0.05576397 -0.062820904
-0.07827297 -0.040325563 -0.029440988 -0.044940874 -0.0074205515 0.03994126 0.016632278 0.050461344
0.00069381174 -0.04882268 -0.04433367 -0.053767644 -0.062559344 -0.032172322 -0.022080304 -0.013909394
-0.02954774 -0.03359632 -0.03789102 -0.04219152 -0.015617434 -0.009848221 -0.028224962 -0.027584972
-0.014569433 -0.015064407 0.002224508 0.042766236 0.016914038 0.0032396438 0.007512238 -0.014472396
0.06606465 0.0054368423 0.0019086527 0.07203038 0.041056577 0.016855184 -0.016203051 -0.008935171
0.04801535 -0.051485416 0.030993104 -0.015342577 0.08730569 0.06838097 0.011602628 0.0042266385
-0.0075937347 0.061442867 0.057076454 0.003333674 0.03663285 0.03645657 0.039468765 -0.020338625
-0.083277576 -0.025709113 -0.022576213 -0.015359967 -0.03189723 -0.055146143 -0.026776433 -0.033863757
-0.06685961 -0.044944372 -0.03983534 -0.04096272 -0.0075176284 0.022658657 -0.015836556 0.0067447266
0.03428868 0.008487905 -0.04937539 -0.03512047 -0.069533475 -0.05920511 -0.04224254 -0.059504494
-0.063538 -0.06482301 -0.061375394 -0.07228254 -0.050191756 -0.039946713 -0.038164604 -0.00692897
-0.0368855 -0.021473067 0.00071411603 0.007181364 0.031443413 -0.01867575 -0.044680525 0.039862636
0.058715712 0.019651331 0.029961437 0.026731811 0.07359367 0.07951602 -0.0023380658 -0.029026892
0.03989758 0.060970403 0.03123842 -0.027201971 0.08883918 0.060701348 0.048047278 0.0015130321
0.045310058 0.048899677 0.060412474 -0.06438781 0.026313787 0.033264875 0.036614977 0.0038614254
-0.040492974 -0.027222702 -0.043640412 -0.018715989 0.017734425 -0.049244728 -0.052848767 -0.005890408
-0.047000486 -0.034327768 -0.045747 -0.033653773 -0.028426636 -0.013306247 0.027794564 -0.031727176
-0.023361033 -0.03992434 -0.04466784 -0.005246733 -0.046444457 -0.053459104 -0.0456625 -0.06413255
-0.06955053 -0.055106446 -0.053338792 -0.055179212 -0.059363995 -0.049922388 -0.04383734 -0.032068834
-0.011322901 0.0040808516 -0.0021337438 -0.006174358 0.0018510664 -0.005160203 -0.007629639 0.04822481
0.034891013 0.026359385 0.05710523 0.00084411865 0.022537347 0.03996463 0.07668536 0.024601739
0.0543172 -0.0137514975 -0.011015408 -0.09615206 0.06600746 0.033358492 0.045035817 -0.0061923387
00000000: d529 703d 2d96 2e3d 7176 203d c597 7a3c
00000010: b950 133d 05b4 1f3b 2f96 32bd 6ab0 25bd
00000020: 18f2 51bc 8503 60bc 9aef ab3b a506 4abc
00000030: 9e8e 20bc a2a0 e6bb 1736 1fbc 638a aabc
00000040: dc5c 3fbb b8d3 26bb 266d 9abb 571f 54bc
00000050: 1607 09bc 6df4 57bc 8e6a 54bc 81ad a5bc
00000060: 2dfd 84bc fdbe 7dbc ae95 abbc a95f 8dbc
00000070: c8f4 a1bc de02 93bc d36b d0bc 801c dabc
00000080: 68fe afbc 29ca b8bc b6fc d3bc 87d1 c6bc
00000090: fd19 aabc 7a31 9bbc 4d17 9fbc 8174 a7bc
000000a0: 7771 84bc 8965 70bc d957 2d39 c135 253c
000000b0: cda9 323c 5038 9d3c 5378 e23c 3c0b 053d
000000c0: fd83 223d 7444 3c3d 45fd 583d 2e8a 543d
000000d0: 399d f23c f75b f83c 9e3e e23c 5350 3f3d
000000e0: e08e 4e3d 78e8 053d 1597 543d 9882 003c
000000f0: dbc4 053d facc f63c 253d 9a3c b895 e23b
00000100: 4c79 753d 4a30 8d3d 0e18 3a3d 4eba 323d
00000110: e086 313d 5c9a 1a3d 3651 823c e1cf 6bbd
00000120: aed3 9bbd 22be c8bc 4939 c3bc a98c 20bb
00000130: bddb f2bc d98d 84bd c368 64bd 3fa8 80bd
00000140: 944d a0bd 6b2c 25bd 3a2e f1bc ec13 38bd
00000150: 1928 f3bb 7299 233d 6a40 883c 8eb0 4e3d
00000160: ebe0 353a 4afa 47bd 3997 35bd 763b 5cbd
00000170: 1d1f 80bd 20c7 03bd c1e1 b4bc 3ae4 63bc
00000180: 1a0e f2bc 4b9c 09bd 9d33 1bbd 04d1 2cbd
00000190: 44e0 7fbc 6f5a 21bc 0938 e7bc e1f9 e1bc
000001a0: a2b4 6ebc b4d0 76bc 0dc9 113b a62b 2f3d
000001b0: 4f8f 8a3c 3450 543b 3829 f63b a11d 6dbc
000001c0: e74c 873d 8a27 b23b c22b fa3a aa84 933d
000001d0: f12a 283d e213 8a3c 43bc 84bc d364 12bc
000001e0: beab 443d 5fe2 52bd 40e5 fd3c 6f5f 7bbc
000001f0: 53cd b23d 520b 8c3d f318 3e3c 9d7f 8a3b
00000200: ddd4 f8bb 84ab 7b3d 00c9 693d c579 5a3b
00000210: 540c 163d 7c53 153d 00aa 213d 309d a6bc
00000220: 6f8d aabd eb9b d2bc c0f1 b8bc 5fa8 7bbc
00000230: aba6 02bd ece0 61bd 405a dbbc b9b4 0abd
00000240: b1ed 88bd 9717 38bd 622a 23bd 86c8 27bd
00000250: 7056 f6bb a69e b93c aabb 81bc de02 dd3b
00000260: 4972 0c3d db10 0b3c d93d 4abd 7bda 0fbd
00000270: 9167 8ebd 0f81 72bd 8306 2dbd fcba 73bd
00000280: 3620 82bd edc1 84bd c464 7bbd de08 94bd
00000290: df95 4dbd 2a9f 23bd 7d52 1cbd 6a0c e3bb
000002a0: 4015 17bd 49e8 afbc 8433 3b3a a651 eb3b
000002b0: cfca 003d e3fd 98bc ed02 37bd 0147 233d
000002c0: e37f 703d d4fb a03c b071 f53c acfc da3c
000002d0: 47b8 963d 4cd9 a23d 3c3a 19bb cec9 edbc
000002e0: a56b 233d 1abc 793d b7e7 ff3c abd6 debc
000002f0: 51f1 b53d faa1 783d 39cd 443d ef50 c63a
00000300: 0a97 393d 074b 483d 1273 773d c2dd 83bd
00000310: 0390 d73c c040 083d 96f9 153d f80f 7d3b
00000320: f6db 25bd 2502 dfbc 4ac0 32bd 4652 99bc
00000330: c947 913c d7b4 49bd f377 58bd 5304 c1bb
00000340: 9583 40bd 469b 0cbd 3561 3bbd 8ad8 09bd
00000350: fade e8bc 7202 5abc 6db1 e33c 5bf4 01bd
00000360: a35f bfbc b487 23bd a0f5 36bd c9ec abbb
00000370: 8b3c 3ebd eff7 5abd 9a08 3bbd ed57 83bd
00000380: 8270 8ebd 4cb7 61bd c779 5abd 9903 62bd
00000390: a927 73bd 6b7b 4cbd c88e 33bd 9c5a 03bd
000003a0: b083 39bc aab8 853b 48d6 0bbb 4552 cabb
000003b0: 7b9f f23a ec16 a9bb 0d02 fabb 6187 453d
000003c0: e1e9 0e3d a3ef d73c 2ce7 693d d847 5d3a
000003d0: 3ea0 b83c f4b1 233d 370d 9d3d 9689 c93c
000003e0: b67b 5e3d f64d 61bc f879 34bc 5feb c4bd
000003f0: eb2e 873d eaa2 083d 7a77 383d 1ae9 cabb
